best_model.pt (torch, 495791 bytes, 5 tensors)

fc1.weight f4 [128, 898]
0.030948114 -0.022415893 -0.012731945 0.029637408 0.011455718 0.024790116 -0.024409939 0.017628234
-0.0025590733 0.007948365 0.017999396 -0.02625825 -0.003755806 0.024423841 0.001513429 0.009881731
-0.008848963 0.000798285 0.027658511 0.02044632 0.027062468 0.031473253 0.028664835 -0.004160475
0.021348506 -0.023825504 0.007519085 -0.01827402 0.0132391825 0.032035124 0.00837354 -0.0032447372
0.004529901 0.012351342 -0.006250173 0.0015987828 0.010986272 0.031088177 0.014239725 -0.022442766
-0.006591225 -0.027841883 -0.033193976 0.026011825 0.02953269 -0.007328747 0.02439662 -0.017253295
-0.011755159 0.011405028 -0.004453201 -2.528727e-05 -0.0008849874 0.005366683 0.012517158 0.0044576228
0.031988997 -0.0041110087 0.016182274 0.016927768 -0.014871862 -0.0177247 0.017011795 0.010760557
-0.021826528 0.0037844256 -0.027170744 -0.03158522 0.0034262538 -0.017659262 0.016190387 -0.03024
-0.0028288383 0.010467641 -0.0114892535 0.010225087 -0.022715323 0.024130952 0.028490927 0.018654022
-0.0062003992 -0.00053278357 0.030413505 0.017167151 0.010916475 -0.018706758 -0.012206383 -0.016748607
-0.02736327 0.0101858005 -0.010589857 -0.019721132 0.004664991 0.008108109 0.00045722723 0.017811492
0.029422913 -0.0061874706 0.018834233 0.019480161 -0.02530669 -0.012170389 -0.020595446 -0.0051463563
0.019000094 -0.018379096 0.030292671 -0.008975243 0.0001367554 0.0014764741 -0.005576683 0.0054052137
-0.021524861 -0.0063198693 0.026999298 0.032449316 -0.024191089 0.017271142 0.029741783 -0.01595114
0.00280701 -0.029766679 0.018233132 -0.008891322 -0.009983234 0.006645426 0.0016769171 -0.011593813
-0.03259188 0.011863694 -0.013547024 0.020324841 0.0013730302 0.012645647 0.011686701 0.017759886
-0.033015296 -0.018447192 0.009193987 -0.00012885779 0.01718828 0.016669363 -0.009191822 0.014572125
-0.021229263 -0.015094101 0.014848057 0.025780212 0.027734112 0.030016702 0.025402445 -0.0088709425
0.023778077 0.012297377 -0.01576748 0.02232194 -0.014521228 -0.028152483 0.032118585 -0.019890197
-0.027984906 0.022060066 0.022364695 -0.011129709 -0.025619375 -0.0007018782 0.012502495 0.010233849
0.008762937 -0.020732667 0.01816212 -0.026271824 0.015462693 0.030126695 -0.0017313622 -0.024676029
0.011231143 0.019856457 -0.028615864 0.016936172 0.024980418 -0.008907234 -0.00064253435 -0.01233997
0.019100234 -0.020341046 -0.0181013 -0.013818359 0.00036467984 0.018679153 -0.031146355 -0.0067645814
-0.010891577 0.024266224 -0.02400484 0.0020111874 0.0003389567 -0.01605527 -0.0049258675 0.02038015
-0.026336329 0.0062098093 -0.028701877 -0.033027247 -0.02036775 -0.023712698 0.0080382675 0.017179321
0.009608913 0.026191898 -0.0024271123 -0.0057262704 -0.00040979683 -0.004577687 0.017278004 0.0032581426
0.0020479076 0.012019511 0.014305826 0.012769971 0.013781585 -0.002479978 0.0123943575 0.014901679
0.03130767 0.030164953 -0.03177704 0.02281931 -0.004308356 -0.014850877 0.030308742 -0.012905434
-0.002884699 -0.024947092 0.023690313 -0.02382194 -0.014469307 -0.0032027215 -0.001001656 0.0056316517
0.020908419 -0.018565398 0.01070619 0.00048082322 0.024228994 0.032143522 0.030514892 0.021689318
-0.003159156 -0.020275539 0.0077508055 -0.010297628 0.019683968 -0.0041584875 0.0059905387 -0.022171456
00000000: e686 fd3c 89a1 b7bc a699 50bc 26ca f23c
00000010: c4b0 3b3c a414 cb3c 5af7 c7bc 1669 903c
00000020: 20b6 27bb dc39 023c 7873 933c 8b1b d7bc
00000030: f823 76bb 8214 c83c 405e c63a fce6 213c
00000040: 3efb 10bc 0044 513a 1a94 e23c 0a7f a73c
00000050: 1cb2 dd3c 19ea 003d 84d2 ea3c 9854 88bb
00000060: 10e3 ae3c b42d c3bc a862 f63b 66b3 95bc
00000070: 28e9 583c 4337 033d 2c31 093c a8a5 54bb
00000080: 906f 943b 485d 4a3c 40ce ccbb 408e d13a
00000090: c4ff 333c a2ac fe3c bc4d 693c e4d9 b7bc
000000a0: 34fb d7bb a914 e4bc 68f6 07bd c016 d53c
000000b0: 8aee f13c fc25 f0bb 6cdb c73c c856 8dbc
000000c0: b698 40bc 28dc 3a3c 28ec 91bb 0020 d4b7
000000d0: 80fe 67ba 00db af3b c414 4d3c 4011 923b
000000e0: e506 033d a4b5 86bb b090 843c 1aac 8a3c
000000f0: 1ca9 73bc 6433 91bc 525c 8b3c 0c4d 303c
00000100: 8ccd b2bc 2004 783b 2e95 debc 815f 01bd
00000110: 008b 603b 28aa 90bc b4a1 843c e0b9 f7bc
00000120: 0864 39bb 7880 2b3c 6c3d 3cbc 2087 273c
00000130: 7c15 babc 46ae c53c ce65 e93c 52d0 983c
00000140: b82c cbbb 80aa 0bba be25 f93c 20a2 8c3c
00000150: 04db 323c ea3e 99bc 48fd 47bc 6034 89bc
00000160: f028 e0bc 58e2 263c 1481 2dbc 368e a1bc
00000170: c8dc 983b e0d7 043c 00b8 ef39 68e9 913c
00000180: 5208 f13c 44c0 cabb 404a 9a3c dc94 9f3c
00000190: fa4f cfbc 5066 47bc c8b7 a8bc c4a2 a8bb
000001a0: 16a6 9b3c c28f 96bc 5628 f83c e60c 13bc
000001b0: 0066 0f39 4086 c13a 9cbc b6bb 381e b13b
000001c0: e854 b0bc e816 cfbb a22d dd3c 93e9 043d
000001d0: 642c c6bc 367c 8d3c 0aa5 f33c f7ab 82bc
000001e0: d0f5 373b 40d9 f3bc a65d 953c e8ac 11bc
000001f0: b890 23bc e0c1 d93b 00cc db3a faf3 3dbc
00000200: 107f 05bd f05f 423c 56f4 5dbc 4880 a63c
00000210: 40f7 b33a b02f 4f3c 9479 3f3c 2e7d 913c
00000220: 0c3b 07bd 911e 97bc 60a2 163c 001e 07b9
00000230: 70ce 8c3c 308e 883c 4c99 16bc ecbf 6e3c
00000240: fee8 adbc 404d 77bc 4445 733c 0631 d33c
00000250: a632 e33c 96e5 f53c ca18 d03c 6e57 11bc
00000260: 3eca c23c f07a 493c cd2a 81bc 80dc b63c
00000270: 72ea 6dbc 09a0 e6bc c78e 033d c4f0 a2bc
00000280: 9a40 e5bc 50b7 b43c 2a36 b73c 6259 36bc
00000290: b9df d1bc 40fe 37ba 44d7 4c3c e0ab 273c
000002a0: 6c92 0f3c 8ed7 a9bc bac8 943c 0238 d7bc
000002b0: 3c57 7d3c 42cc f63c e0ee e2ba 6225 cabc
000002c0: d402 383c 02aa a23c d16b eabc babd 8a3c
000002d0: bca3 cc3c a6ef 11bc c06f 28ba 962d 4abc
000002e0: 1878 9c3c 44a2 a6bc 2d49 94bc 6666 62bc
000002f0: 8032 bf39 0605 993c a426 ffbc 6ca9 ddbb
00000300: 9672 32bc f6c9 c63c cca5 c4bc 20ce 033b
00000310: 00b6 b139 5786 83bc 2c69 a1bb 46f4 a63c
00000320: 49bf d7bc a87b cb3b 3320 ebbc 9447 07bd
00000330: 45da a6bc 2241 c2bc f0b2 033c a6bb 8c3c
00000340: b46e 1d3c 6490 d63c 3010 1fbb 70a3 bbbb
00000350: 00da d6b9 6c00 96bb 9a8a 8d3c 9086 553b
00000360: 3036 063b 7ced 443c fc62 6a3c 2439 513c
00000370: 28cc 613c 2087 22bb b411 4b3c 2c26 743c
00000380: 793c 003d 7e1c f73c a428 02bd 90ef ba3c
00000390: 1c2d 8dbb 1851 73bc 0a4a f83c 5071 53bc
000003a0: 380d 3dbb d85d ccbc 3012 c23c 3b26 c3bc
000003b0: ac10 6dbc c0e4 51bb 004a 83ba b889 b83b
000003c0: 2248 ab3c 7616 98bc 0469 2f3c 0017 fc39
000003d0: e27b c63c eda8 033d 5efa f93c ccad b13c
000003e0: d809 4fbb e318 a6bc 78fa fd3b 62b7 28bc
000003f0: 4640 a13c ec43 88bb 484c c43b eaa0 b5bc

fc1.bias f4 [128]
0.009324767 -0.007845182 0.002633527 0.022067796 -0.0284518 0.030516598 0.0014517717 0.020294454
0.026536357 -0.031888623 0.024800353 -0.0040757665 0.006333547 0.008787502 -0.009658825 0.010654013
0.017440615 0.0107586775 0.018344618 -0.014392752 -1.1814864e-06 0.029349942 -0.03226071 -0.016567687
-0.032274075 0.003819678 0.0020115562 -0.0037030578 0.029370569 0.02269673 -0.0039060898 0.009936941
0.024606869 -0.028621044 0.0056038164 0.0045490186 0.000200075 0.021531878 0.009782553 -0.016086545
0.028549757 -0.012595009 -0.011628947 0.010217052 0.020086847 0.009973168 -0.033203654 -0.029343562
0.015848331 0.032080207 -0.0020189025 -0.0336456 -0.017083632 0.00906694 0.0024018248 -0.02755716
-0.027481552 -0.01917316 -0.0081570335 -0.0070184134 0.0077711307 0.0084562935 -0.003652811 -0.019463062
-0.024121443 0.0020484962 -0.022883367 -0.027633114 0.024287209 0.015183654 -0.02770213 0.0016810931
0.010700167 0.012957157 0.027695313 0.016010582 -0.016108483 0.008286901 0.017906668 -0.0058655483
-0.029298615 -0.009050833 -0.020214304 0.029438477 -0.020252656 -0.029818827 0.031464398 -0.002320243
-0.021950932 0.003121038 -0.017969156 -0.010670376 0.01071832 -0.012158696 0.00069927797 -0.01860087
0.015444275 -0.035382323 -0.017393352 0.0046828687 0.020687152 -0.023551406 0.006436643 0.032151695
-0.027996805 0.0028109658 0.019354949 0.024981879 0.013900995 -0.03173851 -0.012947116 -0.0111763505
-0.028559754 0.025228864 -0.014987588 0.021750428 0.0068491334 0.031878475 -0.030884352 -0.013207722
-0.018312596 -0.011155272 0.024447087 -0.021699004 0.008211769 -0.004787674 -0.019536175 0.030960906
00000000: e8c6 183c 1489 00bc 4097 2c3b 86c7 b43c
00000010: c013 e9bc f2fd f93c 6049 be3a 8e40 a63c
00000020: c662 d93c a59d 02bd 1c2a cb3c 028e 85bb
00000030: a589 cf3b 74f9 0f3c 0c40 1ebc 2b8e 2e3c
00000040: 9fdf 8e3c 2a45 303c 7447 963c 94cf 6bbc
00000050: 9093 9eb5 4a6f f03c ce23 04bd f5b8 87bc
00000060: d231 04bd 9053 7a3b 50d4 033b 00af 72bb
00000070: 8c9a f03c 7eee b93c 50fd 7fbb 8dce 223c
00000080: 5894 c93c ae76 eabc 38a0 b73b ef0f 953b
00000090: 39cb 5139 9f63 b03c 0047 203c eec7 83bc
000000a0: 2ee1 e93c 4c5b 4ebc 5787 3ebc 6c65 273c
000000b0: 2c8d a43c 8066 233c 8e00 08bd e961 f0bc
000000c0: 5cd4 813c 8966 033d 904f 04bb f8cf 09bd
000000d0: f9f2 8bbc 818d 143c ef67 1d3b 8ebf e1bc
000000e0: fe20 e1bc 0811 9dbc 14a5 05bc b8fa e5bb
000000f0: f8a4 fe3b 448c 0a3c 0064 6fbb 0071 9fbc
00000100: 559a c5bc 1040 063b e675 bbbc d75e e2bc
00000110: f8f5 c63c dcc4 783c 94ef e2bc 2058 dc3a
00000120: c14f 2f3c 414a 543c 48e1 e23c a028 833c
00000130: f0f5 83bc c8c5 073c 01b1 923c c933 c0bb
00000140: a603 f0bc f249 14bc 7898 a5bc f628 f13c
00000150: e6e8 a5bc 9d46 f4bc d0e0 003d 380f 18bb
00000160: 71d2 b3bc 548a 4c3b 0d34 93bc cdd2 2ebc
00000170: e49b 2f3c 4435 47bc c04f 373a da60 98bc
00000180: fc09 7d3c 0eed 10bd 817c 8ebc c072 993b
00000190: 1a78 a93c e1ee c0bc 7aea d23b 7fb1 033d
000001a0: 8e59 e5bc 2e38 383b 458e 9e3c cca6 cc3c
000001b0: 00c1 633c 3d00 02bd 2420 54bc 031d 37bc
000001c0: 25f6 e9bc c3ac ce3c 808e 75bc f42d b23c
000001d0: b26e e03b 0193 023d 2e01 fdbc 3465 58bc
000001e0: 4c04 96bc 9ac4 36bc 4245 c83c 1cc2 b1bc
000001f0: a88a 063c ece1 9cbb 540a a0bc baa1 fd3c

fc2.weight f4 [64, 128]
0.080189876 0.03793501 -0.06470986 0.050756864 -0.068231635 -0.009285711 -0.047632724 -0.06391236
-0.053571004 0.070953414 0.023197964 0.04460892 0.05163956 -0.0153708905 0.029835122 0.08614874
-0.07270411 -0.06648043 -0.014079884 0.0017659989 0.08715511 -0.0751965 -0.06888679 0.08131164
0.07701924 0.01099804 0.030089907 -0.030437063 0.07798557 -0.08765749 0.07135383 -0.054221816
-0.07210236 -0.07885456 0.030889317 0.06961503 -0.021231936 -0.04625271 -0.053722985 0.026327357
0.043962143 0.04311017 0.051494703 -0.05629348 -0.073089935 0.005775254 -0.023152035 0.008567894
-0.075068355 0.006274335 -0.057337508 0.0572606 -0.05862135 -0.012901199 0.050408535 -0.05960519
-0.013983206 -0.009447432 0.011673065 0.042026497 0.0844877 -0.028998487 0.020244725 0.027724847
0.059848197 -0.044221736 -0.08659211 0.03888402 -0.048665646 0.079924665 -0.06332618 -0.014453493
0.06085647 -0.054037586 0.041929595 -0.018781044 0.0477541 0.038968123 -0.014648184 -0.06501703
-0.011285178 -0.02262729 0.039628275 0.07000279 0.031366706 -0.0027804896 -0.001368204 -0.032200012
0.07941744 -0.052996855 0.014393613 -0.032042265 0.08542063 -0.007299523 -0.03286151 -0.07266501
0.041619502 0.04921161 0.06298732 0.020042606 -0.018408746 -0.017509855 0.058169883 -0.014205195
-0.010985658 -0.05347765 0.0782726 0.0006782785 -0.0066835135 -0.07984727 -0.05444125 -0.018863013
0.035671994 0.0709721 0.04347173 -0.07121132 0.047608163 -0.038872365 -0.07050587 -0.023251869
0.07337389 0.009333576 -0.07832003 0.014259442 -0.026099246 0.042051114 -0.044002164 -0.014442354
-0.054652367 -0.007854357 0.06987179 0.06654004 -0.025852367 -0.035007823 -0.023911178 -0.035839323
-0.038377285 -0.03403694 0.061504178 -0.050798345 0.06580463 0.005375892 0.0027323416 0.056727674
-0.019448066 0.020384789 -0.017736882 0.035583593 -0.086346515 0.045219727 0.07677431 -0.06389126
0.02293855 -0.06854027 0.0255538 0.062413923 0.024221253 0.015334077 0.054748602 0.0032560357
0.08670328 -0.011388391 -0.016721047 -0.040647577 -0.061611332 0.064361274 -0.012531884 0.02680999
-0.02987279 0.052220605 0.009844631 0.016478293 0.056227125 0.07855585 0.023597257 0.01011
0.03365411 -0.08086368 0.012188248 -0.08853909 0.027326684 0.031916827 0.06440106 -0.07170254
-0.043199446 -0.04372704 -0.011174137 -0.03535814 -0.045943383 -0.009762339 0.03500259 0.021385912
-0.08189759 -0.052904524 -0.003178686 0.053359814 -0.022993855 -0.08921976 -0.039064255 0.014382884
-0.013983578 0.008082807 -0.04528369 0.011107191 -0.07529931 -0.0745609 -0.033037756 -0.071714975
0.022099897 -0.028905703 -0.085224204 -0.06260903 -0.08139603 0.057916827 -0.02773137 -0.06699896
0.046674617 0.084176034 -0.03386925 0.06522097 -0.03158192 -0.07302726 0.006628573 0.025098104
-0.04901219 0.011796339 -0.04897203 0.052345343 0.016210385 0.07840525 -0.009837305 0.033466086
-0.04879745 0.030702561 -0.05446632 0.044232972 0.049979888 0.082947 0.056745045 -0.00023303452
-0.022864938 -0.06263999 0.027432643 -0.040728327 -0.014084963 0.049749978 -0.06055583 -0.002925381
-0.079904765 -0.04126013 -0.038573787 -0.06159696 -0.018793069 -0.026537783 0.07058055 0.044975094
00000000: 973a a43d be61 1b3d 9a86 84bd 6ee6 4f3d
00000010: 07bd 8bbd 1823 18bc 881a 43bd 7ce4 82bd
00000020: 456d 5bbd 0650 913d a809 be3c d8b7 363d
00000030: 0184 533d 30d6 7bbc c968 f43c c06e b03d
00000040: e4e5 94bd e426 88bd 50af 66bc 1779 e73a
00000050: 617e b23d 9f00 9abd 8414 8dbd b886 a63d
00000060: 43bc 9d3d 2031 343c 1c7f f63c 2657 f9bc
00000070: e6b6 9f3d c585 b3bd f521 923d b217 5ebd
00000080: 67aa 93bd 807e a1bd 980b fd3c 5392 8e3d
00000090: 99ee adbc 7b73 3dbd a20c 5cbd 78ac d73c
000000a0: a611 343d 4a94 303d 1cec 523d fe93 66bd
000000b0: 2db0 95bd 583e bd3b 56a9 bdbc 5a60 0c3c
000000c0: 70bd 99bd f098 cd3b bcda 6abd 178a 6a3d
000000d0: f11c 70bd 8d5f 53bc 2e79 4e3d 9224 74bd
000000e0: d119 65bc 67c9 1abc 6240 3f3c fa23 2c3d
000000f0: e307 ad3d 3c8e edbc 44d8 a53c 381f e33c
00000100: 6223 753d da21 35bd 3457 b1bd da44 1f3d
00000110: a155 47bd 8baf a33d 28b1 81bd 58ce 6cbc
00000120: a244 793d 8456 5dbd 5ebe 2b3d b4da 99bc
00000130: ce99 433d 0a9d 1f3d f0fe 6fbc a627 85bd
00000140: 78e5 38bc de5c b9bc 4251 223d 9f5d 8f3d
00000150: 607a 003d e038 36bb 4f55 b3ba 29e4 03bd
00000160: 9ca5 a23d 3b13 59bd 30d3 6b3c c03e 03bd
00000170: 03f1 ae3d d630 efbb ca99 06bd 65d1 94bd
00000180: 3679 2a3d 1d92 493d 7fff 803d 6430 a43c
00000190: f0cd 96bc d470 8fbc 8b43 6e3d e8bc 68bc
000001a0: 30fd 33bc 610b 5bbd 634d a03d 80ce 313a
000001b0: 6001 dbbb f786 a3bd cafd 5ebd 9b86 9abc
000001c0: cc1c 123d d259 913d 6a0f 323d 3ed7 91bd
000001d0: c700 433d a138 1fbd 6265 90bd b47a bebc
000001e0: 0d45 963d dbeb 183c 4066 a0bd 6fa0 693c
000001f0: 16ce d5bc ca3d 2c3d 9d3b 34bd a09f 6cbc
00000200: 29db 5fbd 90af 00bc f118 8f3d 2546 883d
00000210: 58c8 d3bc 5d64 0fbd 60e1 c3bc 41cc 12bd
00000220: 8031 1dbd 526a 0bbd ceeb 7b3d ed11 50bd
00000230: 94c4 863d 4028 b03b 1611 333b 475b 683d
00000240: 8d51 9fbc 00fe a63c f04c 91bc 1ac0 113d
00000250: 71d6 b0bd 5238 393d d93b 9d3d 6cd9 82bd
00000260: a0e9 bb3c d75e 8cbd 3456 d13c bea5 7f3d
00000270: a66b c63c c83b 7b3c 1240 603d 3763 553b
00000280: 7d91 b13d 6096 3abc 94fa 88bc 137e 26bd
00000290: 2a5c 7cbd d8cf 833d 8852 4dbc a0a0 db3c
000002a0: c8b7 f4bc 46e5 553d 604b 213c 7cfd 863c
000002b0: 6a4e 663d e4e1 a03d 094f c13c 6aa4 253c
000002c0: e4d8 093d db9b a5bd 38b1 473c fb53 b5bd
000002d0: 36dc df3c 38bb 023d b4e4 833d c8d8 92bd
000002e0: e7f1 30bd 201b 33bd ba13 37bc b2d3 10bd
000002f0: 212f 3cbd 38f2 1fbc e05e 0f3d 8231 af3c
00000300: ecb9 a7bd 6ab2 58bd 8051 50bb d28f 5a3d
00000310: 9c5d bcbc d9b8 b6bd d701 20bd 30a6 6b3c
00000320: 611b 65bc c06d 043c 647b 39bd f0fa 353c
00000330: 8636 9abd 63b3 98bd 9952 07bd 4ddf 92bd
00000340: d80a b53c a7cb ecbc 078a aebd 2a39 80bd
00000350: f6b2 a6bd 323a 6d3d e62c e3bc c036 89bd
00000360: e22d 3f3d 7c64 ac3d 7cba 0abd 9292 853d
00000370: 0b5c 01bd 518f 95bd 8034 d93b 8a9a cd3c
00000380: 02c1 48bd 6f45 413c e596 48bd 1268 563d
00000390: a4cb 843c ef92 a03d a62c 21bc bc13 093d
000003a0: d6df 47bd f083 fb3c 1318 5fbd a22d 353d
000003b0: b6b7 4c3d 1ee0 a93d 7e6d 683d ba5a 74b9
000003c0: 404f bbbc 6549 80bd 6cba e03c bfd2 26bd
000003d0: 9ec4 66bc a2c6 4b3d 6409 78bd c0b7 3fbb
000003e0: 1ca5 a3bd 6200 29bd 8cff 1dbd 184d 7cbd
000003f0: ecf3 99bc c465 d9bc 898c 903d ce37 383d

fc2.bias f4 [64]
-0.083045445 -0.06972272 0.07829786 -0.021644551 -0.07100269 0.046229195 0.040768206 -0.020743761
-0.05913457 0.059099924 0.050911266 0.08081541 -0.013640737 -0.07549574 0.0116576925 0.024661649
0.005630045 -0.029058397 -0.025797477 0.047207296 0.06095574 0.06049607 0.032988776 -0.06421382
-0.051145785 0.013945752 -0.049041063 -0.0076116202 0.018120773 0.031732704 -0.053940184 -0.0008785093
0.06752545 0.08404484 -0.020142866 -0.08816212 0.020097017 0.040395103 0.00017771653 0.008911333
-0.0712612 0.035211053 0.057199158 -0.032696392 0.0016944421 -0.085667245 -0.0430812 -0.034509473
-0.0829441 -0.01872679 -0.061077125 -0.06626463 0.00028967124 -0.08633477 0.05909655 -0.03547734
0.03079409 -0.08494762 0.08006647 0.046076797 -0.06732977 0.07005435 -0.017764337 0.04204861
00000000: bb13 aabd c9ca 8ebd a15a a03d ea4f b1bc
00000010: dc69 91bd d35a 3d3d 90fc 263d d2ee a9bc
00000020: 1737 72bd c312 723d 5588 503d 8d82 a53d
00000030: 667d 5fbc 839d 9abd e8ff 3e3c 3a07 ca3c
00000040: 3e7c b83b e00b eebc 3b55 d3bc 705c 413d
00000050: baac 793d baca 773d 3d1f 073d 8982 83bd
00000060: 3e7e 51bd b97c 643c 48df 48bd e66a f9bb
00000070: 0472 943c 27fa 013d 62f0 5cbd c34b 66ba
00000080: c84a 8a3d b31f ac3d a702 a5bc 578e b4bd
00000090: 80a2 a43c 5675 253d 6b59 3a39 d700 123c
000000a0: 64f1 91bd 7739 103d aa49 6a3d a7ec 05bd
000000b0: 0b18 de3a 4f72 afbd ea75 30bd ce59 0dbd
000000c0: 99de a9bd ed68 99bc 022c 7abd c0b5 87bd
000000d0: 04df 9739 49d0 b0bd 390f 723d b050 11bd
000000e0: e343 fc3c 05f9 adbd e4f9 a33d 06bb 3c3d
000000f0: 31e4 89bd a878 8f3d 8486 91bc 2a3b 2c3d

fc3.weight f4 [1, 64]
-0.024342572 -0.03447947 0.094353326 -0.118584596 0.10754981 0.06925963 0.10499193 0.034417406
-0.112832 0.050860733 0.04859371 0.013658747 0.108142994 0.12011575 -0.104564905 -0.10158348
0.09759676 -0.063783325 -0.026420422 0.0993332 0.023697438 0.030481994 0.062506266 -0.08767382
0.11958691 -0.057778817 0.12041396 0.101007454 0.013739193 0.03921911 -0.092167415 -0.034905843
-0.084210746 -0.09431465 0.05879346 -0.023081193 -0.04028374 -0.08750622 -0.033706337 -0.04043231
-0.087362014 -0.020047562 -0.10043434 -0.09423965 -0.07327626 -0.06791797 0.088101394 0.079709366
0.10841123 -0.08148019 0.016464086 -0.10477725 0.054970145 0.004830211 -0.118804336 0.004104631
-0.0012213591 -0.058710083 0.08503402 0.055590335 -0.009096611 0.012200454 0.070547886 0.08997176
00000000: 136a c7bc 583a 0dbd 513c c13d 7bdc f2bd
00000010: 1343 dc3d fed7 8d3d 0206 d73d 44f9 0c3d
00000020: 7714 e7bd 5853 503d 330a 473d f0c8 5f3c
00000030: 137a dd3d 3fff f53d 2026 d6bd 000b d0bd
00000040: cfe0 c73d d5a0 82bd a46f d8bc 346f cb3d
00000050: 2121 c23c 60b5 f93c 4903 803d 558e b3bd
00000060: fbe9 f43d 7ba9 6cbd 989b f63d ffdc ce3d
00000070: 5a1a 613c 38a4 203d 45c2 bcbd 6ef9 0ebd
00000080: af76 acbd 0a28 c1bd 69d1 703d c514 bdbc
00000090: 9000 25bd 7636 b3bd a80f 0abd 5a9c 25bd
000000a0: dbea b2bd c93a a4bc 85b0 cdbd b800 c1bd
000000b0: dd11 96bd 9418 8bbd 816e b43d aa3e a33d
000000c0: b506 de3d 16df a6bd b1df 863c 7495 d6bd
000000d0: 6028 613d bf46 9e3b b04f f3bd 2480 863b
000000e0: 0316 a0ba fc79 70bd 5126 ae3d b1b2 633d
000000f0: f409 15bc 6ae4 473c 697b 903d 1d43 b83d
